test/nxp/resources/conv2d_model.tflite (tflite, 311840 bytes, 2 tensors)

tfl.pseudo_qconst i1 [10, 30752] scale=0.00010996728 zero_point=0
000000 88 d7 07 65 2d 78 1d f4 e7 c1 4e e0 ef 2d 86 86
       -0.0131960735 -0.0045086583 0.00076977094 0.011106695 0.0049485276 0.0131960735 0.003189051 -0.0013196074 -0.002749182 -0.0069279387 0.008577448 -0.003518953 -0.0018694438 0.0049485276 -0.013416008 -0.013416008
000010 2b b0 3a 5a 68 f7 56 99 4d bc 28 bc 5a 51 24 c8
       0.004728593 -0.008797383 0.006378102 0.009897055 0.011436597 -0.0009897056 0.009457186 -0.01132663 0.008467481 -0.007477775 0.0043986915 -0.007477775 0.009897055 0.00890735 0.003958822 -0.0061581675
000020 e6 2d d2 b3 ab e7 7e 2b 53 5f 74 d5 34 49 71 a3
       -0.0028591494 0.0049485276 -0.005058495 -0.008467481 -0.009347219 -0.002749182 0.013855877 0.004728593 0.009127284 0.010446892 0.012756204 -0.004728593 0.0057182987 0.008027611 0.012426303 -0.0102269575
000030 55 dd a7 62 58 d9 03 3a c9 9d bf 44 bd 02 4f d1
       0.009347219 -0.003848855 -0.009787088 0.010776794 0.0096771205 -0.004288724 0.00032990184 0.006378102 -0.0060482007 -0.01088676 -0.0071478733 0.007477775 -0.007367808 0.00021993456 0.008687415 -0.005168462
000040 6a aa e3 cc 6f 91 47 c7 b3 b3 cd 00 f5 88 0f 11
       0.011656532 -0.009457186 -0.003189051 -0.0057182987 0.012206368 -0.012206368 0.007807677 -0.006268135 -0.008467481 -0.008467481 -0.0056083314 0.0 -0.0012096401 -0.0131960735 0.0016495092 0.0018694438
000050 8a 7a 6c fb 24 1f 72 66 57 7d 87 e9 1d 8b e3 26
       -0.012976139 0.013416008 0.011876467 -0.00054983643 0.003958822 0.0034089857 0.01253627 0.011216663 0.009567154 0.0137459105 -0.013306041 -0.0025292474 0.003189051 -0.012866172 -0.003189051 0.004178757
000060 47 c2 52 2d 6f c6 59 6f 44 cb e8 43 71 8b 0b 6f
       0.007807677 -0.0068179714 0.009017317 0.0049485276 0.012206368 -0.006378102 0.009787088 0.012206368 0.007477775 -0.005828266 -0.0026392147 0.007367808 0.012426303 -0.012866172 0.0012096401 0.012206368
000070 27 34 fa 69 86 bb e7 cd c8 a2 ed d0 dc 67 07 51
       0.004288724 0.0057182987 -0.0006598037 0.011546564 -0.013416008 -0.0075877425 -0.002749182 -0.0056083314 -0.0061581675 -0.010336924 -0.0020893784 -0.0052784295 -0.003958822 0.01132663 0.00076977094 0.00890735
000080 ae c3 25 a7 28 ff 13 29 7d 01 a9 44 ae 10 40 aa
       -0.009017317 -0.006708004 0.0040687895 -0.009787088 0.0043986915 -0.00010996728 0.0020893784 0.0045086583 0.0137459105 0.00010996728 -0.009567154 0.007477775 -0.009017317 0.0017594765 0.007037906 -0.009457186
000090 53 c9 23 a7 ad 96 49 36 b4 11 90 68 56 f1 af 0b
       0.009127284 -0.0060482007 0.003848855 -0.009787088 -0.009127284 -0.011656532 0.008027611 0.0059382333 -0.008357514 0.0018694438 -0.012316335 0.011436597 0.009457186 -0.0016495092 -0.00890735 0.0012096401
0000a0 1e 98 e4 7c 5f 13 8d ff 3c ca bd f8 76 e4 cc 1f
       0.0032990184 -0.011436597 -0.0030790837 0.013635943 0.010446892 0.0020893784 -0.012646237 -0.00010996728 0.0065980367 -0.0059382333 -0.007367808 -0.00087973825 0.012976139 -0.0030790837 -0.0057182987 0.0034089857
0000b0 4d 41 36 f4 2c 74 ce 7a 5c 57 d6 1f 77 3d 0e d4
       0.008467481 0.0071478733 0.0059382333 -0.0013196074 0.0048385602 0.012756204 -0.005498364 0.013416008 0.01011699 0.009567154 -0.0046186256 0.0034089857 0.013086107 0.006708004 0.0015395419 -0.0048385602
0000c0 4f 8d aa 87 4a 1a 2b c6 d9 d5 93 5f 52 32 34 2d
       0.008687415 -0.012646237 -0.009457186 -0.013306041 0.008137579 0.0028591494 0.004728593 -0.006378102 -0.004288724 -0.004728593 -0.0119864335 0.010446892 0.009017317 0.005498364 0.0057182987 0.0049485276
0000d0 1f 43 c6 cb ea 92 01 00 df 18 9a e6 11 f2 b6 6c
       0.0034089857 0.007367808 -0.006378102 -0.005828266 -0.0024192801 -0.012096401 0.00010996728 0.0 -0.0036289203 0.0026392147 -0.011216663 -0.0028591494 0.0018694438 -0.0015395419 -0.008137579 0.011876467
0000e0 a8 8c bb e7 50 3d e2 94 84 91 aa 72 ae ce 21 c1
       -0.0096771205 -0.012756204 -0.0075877425 -0.002749182 0.008797383 0.006708004 -0.0032990184 -0.011876467 -0.013635943 -0.012206368 -0.009457186 0.01253627 -0.009017317 -0.005498364 0.0036289203 -0.0069279387
0000f0 cf c9 67 fe 26 2c 05 14 f3 c2 3b 6f 98 a6 6d 19
       -0.005388397 -0.0060482007 0.01132663 -0.00021993456 0.004178757 0.0048385602 0.00054983643 0.0021993457 -0.0014295747 -0.0068179714 0.0064880694 0.012206368 -0.011436597 -0.009897055 0.0119864335 0.002749182

tfl.pseudo_qconst2 i1 [32, 3, 3, 3]
000000 5e 2d a5 d5 c2 9a e1 5b 71 cb b5 dd 92 04 0a 37
       94 45 -91 -43 -62 -102 -31 91 113 -53 -75 -35 -110 4 10 55
000010 0d 86 bc 25 4a c7 f0 e7 28 81 9b d4 7f d5 96 b0
       13 -122 -68 37 74 -57 -16 -25 40 -127 -101 -44 127 -43 -106 -80
000020 ee 49 83 29 e0 ce 26 4f 10 f9 60 44 a5 67 8b 2d
       -18 73 -125 41 -32 -50 38 79 16 -7 96 68 -91 103 -117 45
000030 df da 6f 8d 94 da 65 68 bf 7f bc 13 f1 cf 99 dd
       -33 -38 111 -115 -108 -38 101 104 -65 127 -68 19 -15 -49 -103 -35
000040 0b f5 ab 62 67 0e d8 52 58 e2 23 65 03 35 32 53
       11 -11 -85 98 103 14 -40 82 88 -30 35 101 3 53 50 83
000050 d2 ad 91 af 81 73 a7 77 cf c5 c7 68 3a 01 a9 0b
       -46 -83 -111 -81 -127 115 -89 119 -49 -59 -57 104 58 1 -87 11
000060 07 83 94 07 e3 7a 74 d2 77 4e e7 04 f4 5c e9 25
       7 -125 -108 7 -29 122 116 -46 119 78 -25 4 -12 92 -23 37
000070 26 af 81 b4 fd 51 3b 04 f0 92 ae 3c 25 43 c4 13
       38 -81 -127 -76 -3 81 59 4 -16 -110 -82 60 37 67 -60 19
000080 ff 6f e6 e8 24 df 6b bb f4 b3 1e 86 ac 1c e0 fa
       -1 111 -26 -24 36 -33 107 -69 -12 -77 30 -122 -84 28 -32 -6
000090 88 1a 85 7f c9 9c 44 12 10 ab 1c 1f 54 74 e3 89
       -120 26 -123 127 -55 -100 68 18 16 -85 28 31 84 116 -29 -119
0000a0 71 9d 81 a2 db 39 a0 c9 4a 25 76 a2 c2 4f 60 51
       113 -99 -127 -94 -37 57 -96 -55 74 37 118 -94 -62 79 96 81
0000b0 95 d6 7f 7e ea 0e e0 24 d8 25 0a d5 9a 16 df ac
       -107 -42 127 126 -22 14 -32 36 -40 37 10 -43 -102 22 -33 -84
0000c0 81 e1 30 85 2f d5 a6 0d 21 a9 ae bc 1f ac 6b ed
       -127 -31 48 -123 47 -43 -90 13 33 -87 -82 -68 31 -84 107 -19
0000d0 db 20 a2 8c 7a 45 3b f9 17 03 ec eb 7f e7 3c dd
       -37 32 -94 -116 122 69 59 -7 23 3 -20 -21 127 -25 60 -35
0000e0 3e b4 dc 16 cd 7c e9 bd 1f 92 8b d3 ad ef e6 45
       62 -76 -36 22 -51 124 -23 -67 31 -110 -117 -45 -83 -17 -26 69
0000f0 2a ca 21 5a b8 81 7e 7b 4a 98 00 b4 cd 45 2c ab
       42 -54 33 90 -72 -127 126 123 74 -104 0 -76 -51 69 44 -85
